project_presentation_files/obstacle_benchmark_3/reward_obstacle_map_pretrainedModel_solidObstacle.npz (npz, 15783 bytes, 2 tensors)

obs_radius_array f8 [2]
000000 00 00 00 00 00 00 e8 3f 00 00 00 00 00 00 f0 3f
       0.75 1.0

total_reward_array f8 [2, 3, 3, 100]
000000 46 f1 18 42 a5 da 70 40 58 23 00 89 79 43 34 c0
       269.66534623854784 -20.26357322934504
000010 86 18 cb 27 02 14 60 40 d8 7b 87 eb 65 da 3e 40
       128.62526311556957 30.853117676331607
000020 1d 9d 64 cb 7e 12 70 40 60 93 6d ec 6c b7 6e 40
       257.15595568945156 245.73204633141995
000030 a6 bd e1 43 b7 31 4d c0 34 f6 65 43 29 55 5f 40
       -58.38840530893803 125.33064351041031
000040 94 29 9e 00 f3 bc 6d 40 99 02 dd 98 dd 77 71 40
       237.90466338053795 279.49160085994805
000050 a0 1d bf 34 7b 5e 6e 40 ee 5d 5a 4f bb 93 6f 40
       242.9525397999505 252.6166149868945
000060 f6 91 dd d5 1f d1 5f 40 ec a4 68 79 88 13 71 40
       127.26756807935439 273.2208189094224
000070 00 9a 71 2e 1b 55 35 c0 cc ab 5a 79 f8 75 4e c0
       -21.332446005568272 -60.92164532592105
000080 ab a3 33 ed 15 3b 70 40 10 54 87 c0 9a d3 5b 40
       259.6928531663095 111.30632031646405
000090 73 5f 5d d8 cf 1a 6f 40 b2 b9 98 eb 98 67 4b c0
       248.83787172543416 -54.80935425717634
0000a0 ec 45 91 d8 14 33 6d 40 cb 42 37 4b f9 d3 6d 40
       233.59629467366847 238.62418137353083
0000b0 39 a7 c4 62 e8 83 6c 40 0d 79 a9 04 b9 b1 60 40
       228.12211740883666 133.55383523082892
0000c0 ac a2 32 3c 40 2a 38 c0 f8 e7 c3 2e 40 7e 29 40
       -24.165042650568168 12.746583424963305
0000d0 44 ba e1 9b 25 2f 30 40 90 45 e8 be e9 0a 6b 40
       16.184167616471555 216.34103341451237
0000e0 f8 40 1f 8f 6a a9 26 c0 09 01 80 c5 59 c6 6b 40
       -11.330891106190833 222.19845843315878
0000f0 6e 7a b5 37 74 e6 6f 40 0c 01 7c 36 10 07 60 40
       255.20168672032327 128.22072910518216
000100 3e 69 8d b0 b5 ec 45 40 48 44 02 ad 66 ba 6f 40
       43.84929472832526 253.82503366892547
000110 1a 6e cc 74 eb 9d 69 40 43 a3 d0 02 ed 09 6f 40
       204.93499221732856 248.3101820063549
000120 48 6b 16 70 02 2d 65 40 a1 32 17 85 46 cd 6f 40
       169.4065475881455 254.41485838442625
000130 ce 92 3e 5b 69 79 70 40 c3 b6 91 a9 0e b8 6c 40
       263.5882217830921 229.75178984126805
000140 cc 55 53 e7 3e 36 6e 40 88 51 0c 4a e8 6c 6e 40
       241.69517866398235 243.40335562139467
000150 f2 3e fb a2 ec f8 70 40 3e 99 36 ee d2 65 49 c0
       271.5577726187031 -50.79549958864162
000160 90 ed 82 d0 cd 2b 25 c0 9b 0e 5d c0 ab b2 6e 40
       -10.585554615003986 245.58346574950414
000170 52 2d d7 57 b5 c2 6c 40 87 66 39 ac cf b2 6f 40
       230.08463661219372 253.58785067759547
000180 ff 3b 04 ab 73 31 70 40 ab 7e d1 cb 13 8e 62 40
       259.0907392659573 148.43991652409508
000190 8a 44 a2 76 14 12 70 40 88 0c 53 d9 b5 cf 46 c0
       257.12999595056374 -45.62273708872914
0001a0 42 77 61 a2 47 2d 61 40 e1 a8 59 19 bf 84 6f 40
       137.41499442135142 252.14832751762063
0001b0 80 63 83 c3 72 78 6b 40 18 94 da 62 c5 fb 24 c0
       219.76400924360132 -10.491740311796136
0001c0 3e b5 a1 7a 0a e5 6a 40 9c 80 50 df 50 d9 6a 40
       215.15752917846288 214.79112210963365
0001d0 ae f5 58 05 2d ff 70 40 f0 1d f1 0a 9e 17 3b 40
       271.94849142789724 27.092255290857736
0001e0 22 dc d5 fb c1 43 70 40 2c 6e 15 2c 9b 75 31 c0
       260.2348593095686 -17.459398989898702
0001f0 62 59 bc f1 fb 34 49 c0 58 d8 71 08 98 4d 6b 40
       -50.413938729255065 218.42480871425028
000200 ce fc 69 17 36 63 61 40 a0 47 8e 0d cb 2e 16 40
       139.10035296154678 5.545696460541791
000210 b1 31 27 1e 23 5a 62 40 6c 01 6e 34 4c 57 6f 40
       146.81678683905696 250.72805234418354
000220 9e 2a c1 1f b2 1f 6c 40 e4 cb 41 1a 00 f1 6b 40
       224.9904936573775 223.53126252032155
000230 97 e4 03 2a 23 83 60 40 20 9b 87 29 cb de 6b 40
       132.0980424953493 222.96230007634676
000240 7e 23 7b 51 a1 18 70 40 60 c2 88 27 b6 83 5e 40
       257.5393843469718 122.05799282412909
000250 15 d3 2b f3 c7 c9 61 40 e8 f6 99 86 79 e0 6a 40
       142.3056579452465 215.0148346907729
000260 a4 8e d3 55 44 d9 70 40 f5 1f f0 67 25 d9 6c 40
       269.57918341292884 230.78581616305715
000270 43 82 b6 b5 4b 51 6c 40 44 47 63 8b e9 7d 6d 40
       226.54049192091233 235.93475884809789
000280 e0 41 8f f6 7a 5c 5f 40 fa 0c da 61 8b 30 4b c0
       125.44500507345174 -54.379253608198226
000290 98 b9 63 f3 cf cc 3c 40 cc 8c 32 ad 40 e0 6d 40
       28.800048076483648 239.00789508698506
0002a0 ac 5d 7b b7 a1 19 6f 40 c9 f4 39 66 80 3e 6f 40
       248.80099081129936 249.95317374534196
0002b0 fa 80 a2 4d b7 8f 70 40 d9 af 44 b7 72 ea 6c 40
       264.98225177267125 231.32650340476428
0002c0 cc 73 62 e6 12 8e 6d 40 03 54 ce bc c2 79 61 40
       236.43980712155314 139.8050216703269
0002d0 a8 4e cd 27 75 8b 2e c0 c0 28 27 72 65 96 6f 40
       -15.272378200351639 252.6998835339382
0002e0 71 7b 9e 37 91 93 70 40 14 69 d0 b5 ec 50 69 40
       265.2229534331046 202.52889528947037
0002f0 2e a8 7d 11 41 31 70 40 14 45 56 6c 39 3d 6b 40
       259.078385821197 217.91325966691568
000300 e4 b1 3e 0e 97 89 71 40 52 2e fe 82 87 84 6f 40
       280.5993788193721 252.14154195446696
000310 9f 59 91 45 0c a6 6d 40 10 72 1a 8c 6d d9 6d 40
       237.18899801624954 238.79462247052334
000320 46 f1 18 42 a5 da 70 40 58 23 00 89 79 43 34 c0
       269.66534623854784 -20.26357322934504
000330 86 18 cb 27 02 14 60 40 f0 7b 87 eb 65 da 3e 40
       128.62526311556957 30.853117676331692
000340 1d 9d 64 cb 7e 12 70 40 64 93 6d ec 6c b7 6e 40
       257.15595568945156 245.73204633142007
000350 a6 bd e1 43 b7 31 4d c0 34 f6 65 43 29 55 5f 40
       -58.38840530893803 125.33064351041031
000360 96 29 9e 00 f3 bc 6d 40 9d 02 dd 98 dd 77 71 40
       237.904663380538 279.4916008599483
000370 a2 1d bf 34 7b 5e 6e 40 f6 5d 5a 4f bb 93 6f 40
       242.95253979995056 252.61661498689472
000380 f6 91 dd d5 1f d1 5f 40 ec a4 68 79 88 13 71 40
       127.26756807935439 273.2208189094224
000390 00 9a 71 2e 1b 55 35 c0 cc ab 5a 79 f8 75 4e c0
       -21.332446005568272 -60.92164532592105
0003a0 ab a3 33 ed 15 3b 70 40 10 54 87 c0 9a d3 5b 40
       259.6928531663095 111.30632031646405
0003b0 75 5f 5d d8 cf 1a 6f 40 b2 b9 98 eb 98 67 4b c0
       248.8378717254342 -54.80935425717634
0003c0 f0 45 91 d8 14 33 6d 40 cb 42 37 4b f9 d3 6d 40
       233.59629467366858 238.62418137353083
0003d0 39 a7 c4 62 e8 83 6c 40 0d 79 a9 04 b9 b1 60 40
       228.12211740883666 133.55383523082892
0003e0 ac a2 32 3c 40 2a 38 c0 f8 e7 c3 2e 40 7e 29 40
       -24.165042650568168 12.746583424963305
0003f0 44 ba e1 9b 25 2f 30 40 90 45 e8 be e9 0a 6b 40
       16.184167616471555 216.34103341451237
000400 f8 40 1f 8f 6a a9 26 c0 09 01 80 c5 59 c6 6b 40
       -11.330891106190833 222.19845843315878
000410 74 7a b5 37 74 e6 6f 40 10 01 7c 36 10 07 60 40
       255.20168672032344 128.22072910518227
000420 3e 69 8d b0 b5 ec 45 40 4a 44 02 ad 66 ba 6f 40
       43.84929472832526 253.82503366892553
000430 1a 6e cc 74 eb 9d 69 40 45 a3 d0 02 ed 09 6f 40
       204.93499221732856 248.31018200635495
000440 46 6b 16 70 02 2d 65 40 a1 32 17 85 46 cd 6f 40
       169.40654758814543 254.41485838442625
000450 ce 92 3e 5b 69 79 70 40 c7 b6 91 a9 0e b8 6c 40
       263.5882217830921 229.75178984126816
000460 d2 55 53 e7 3e 36 6e 40 8a 51 0c 4a e8 6c 6e 40
       241.69517866398252 243.40335562139472
000470 f6 3e fb a2 ec f8 70 40 3e 99 36 ee d2 65 49 c0
       271.5577726187033 -50.79549958864162
000480 90 ed 82 d0 cd 2b 25 c0 9f 0e 5d c0 ab b2 6e 40
       -10.585554615003986 245.58346574950426
000490 52 2d d7 57 b5 c2 6c 40 8d 66 39 ac cf b2 6f 40
       230.08463661219372 253.58785067759564
0004a0 01 3c 04 ab 73 31 70 40 ab 7e d1 cb 13 8e 62 40
       259.09073926595744 148.43991652409508
0004b0 8d 44 a2 76 14 12 70 40 88 0c 53 d9 b5 cf 46 c0
       257.1299959505639 -45.62273708872914
0004c0 46 77 61 a2 47 2d 61 40 e1 a8 59 19 bf 84 6f 40
       137.41499442135154 252.14832751762063
0004d0 80 63 83 c3 72 78 6b 40 18 94 da 62 c5 fb 24 c0
       219.76400924360132 -10.491740311796136
0004e0 3e b5 a1 7a 0a e5 6a 40 9c 80 50 df 50 d9 6a 40
       215.15752917846288 214.79112210963365
0004f0 ae f5 58 05 2d ff 70 40 f0 1d f1 0a 9e 17 3b 40
       271.94849142789724 27.092255290857736
000500 22 dc d5 fb c1 43 70 40 2c 6e 15 2c 9b 75 31 c0
       260.2348593095686 -17.459398989898702
000510 62 59 bc f1 fb 34 49 c0 5e d8 71 08 98 4d 6b 40
       -50.413938729255065 218.42480871425045
000520 d0 fc 69 17 36 63 61 40 a0 47 8e 0d cb 2e 16 40
       139.10035296154683 5.545696460541791
000530 b7 31 27 1e 23 5a 62 40 70 01 6e 34 4c 57 6f 40
       146.81678683905713 250.72805234418365
000540 9e 2a c1 1f b2 1f 6c 40 e6 cb 41 1a 00 f1 6b 40
       224.9904936573775 223.5312625203216
000550 99 e4 03 2a 23 83 60 40 24 9b 87 29 cb de 6b 40
       132.09804249534935 222.96230007634688
000560 82 23 7b 51 a1 18 70 40 60 c2 88 27 b6 83 5e 40
       257.53938434697204 122.05799282412909
000570 1b d3 2b f3 c7 c9 61 40 e8 f6 99 86 79 e0 6a 40
       142.30565794524668 215.0148346907729
000580 a4 8e d3 55 44 d9 70 40 f7 1f f0 67 25 d9 6c 40
       269.57918341292884 230.7858161630572
000590 43 82 b6 b5 4b 51 6c 40 44 47 63 8b e9 7d 6d 40
       226.54049192091233 235.93475884809789
0005a0 e4 41 8f f6 7a 5c 5f 40 fa 0c da 61 8b 30 4b c0
       125.4450050734518 -54.379253608198226
0005b0 98 b9 63 f3 cf cc 3c 40 cc 8c 32 ad 40 e0 6d 40
       28.800048076483648 239.00789508698506
0005c0 ac 5d 7b b7 a1 19 6f 40 cd f4 39 66 80 3e 6f 40
       248.80099081129936 249.95317374534207
0005d0 fb 80 a2 4d b7 8f 70 40 d9 af 44 b7 72 ea 6c 40
       264.9822517726713 231.32650340476428
0005e0 cc 73 62 e6 12 8e 6d 40 03 54 ce bc c2 79 61 40
       236.43980712155314 139.8050216703269
0005f0 a8 4e cd 27 75 8b 2e c0 c2 28 27 72 65 96 6f 40
       -15.272378200351639 252.69988353393825
000600 73 7b 9e 37 91 93 70 40 14 69 d0 b5 ec 50 69 40
       265.2229534331047 202.52889528947037
000610 2f a8 7d 11 41 31 70 40 16 45 56 6c 39 3d 6b 40
       259.07838582119706 217.91325966691574
000620 e6 b1 3e 0e 97 89 71 40 54 2e fe 82 87 84 6f 40
       280.5993788193722 252.14154195446702
000630 9f 59 91 45 0c a6 6d 40 12 72 1a 8c 6d d9 6d 40
       237.18899801624954 238.7946224705234
000640 46 f1 18 42 a5 da 70 40 58 23 00 89 79 43 34 c0
       269.66534623854784 -20.26357322934504
000650 86 18 cb 27 02 14 60 40 e8 7b 87 eb 65 da 3e 40
       128.62526311556957 30.853117676331664
000660 1d 9d 64 cb 7e 12 70 40 66 93 6d ec 6c b7 6e 40
       257.15595568945156 245.73204633142012
000670 a6 bd e1 43 b7 31 4d c0 34 f6 65 43 29 55 5f 40
       -58.38840530893803 125.33064351041031
000680 96 29 9e 00 f3 bc 6d 40 9d 02 dd 98 dd 77 71 40
       237.904663380538 279.4916008599483
000690 a0 1d bf 34 7b 5e 6e 40 f6 5d 5a 4f bb 93 6f 40
       242.9525397999505 252.61661498689472
0006a0 f6 91 dd d5 1f d1 5f 40 ec a4 68 79 88 13 71 40
       127.26756807935439 273.2208189094224
0006b0 00 9a 71 2e 1b 55 35 c0 cc ab 5a 79 f8 75 4e c0
       -21.332446005568272 -60.92164532592105
0006c0 ab a3 33 ed 15 3b 70 40 10 54 87 c0 9a d3 5b 40
       259.6928531663095 111.30632031646405
0006d0 75 5f 5d d8 cf 1a 6f 40 b2 b9 98 eb 98 67 4b c0
       248.8378717254342 -54.80935425717634
0006e0 f0 45 91 d8 14 33 6d 40 cb 42 37 4b f9 d3 6d 40
       233.59629467366858 238.62418137353083
0006f0 39 a7 c4 62 e8 83 6c 40 0d 79 a9 04 b9 b1 60 40
       228.12211740883666 133.55383523082892
000700 ac a2 32 3c 40 2a 38 c0 f8 e7 c3 2e 40 7e 29 40
       -24.165042650568168 12.746583424963305
000710 44 ba e1 9b 25 2f 30 40 90 45 e8 be e9 0a 6b 40
       16.184167616471555 216.34103341451237
000720 f8 40 1f 8f 6a a9 26 c0 09 01 80 c5 59 c6 6b 40
       -11.330891106190833 222.19845843315878
000730 72 7a b5 37 74 e6 6f 40 10 01 7c 36 10 07 60 40
       255.20168672032338 128.22072910518227
000740 3e 69 8d b0 b5 ec 45 40 4a 44 02 ad 66 ba 6f 40
       43.84929472832526 253.82503366892553
000750 16 6e cc 74 eb 9d 69 40 47 a3 d0 02 ed 09 6f 40
       204.93499221732844 248.310182006355
000760 48 6b 16 70 02 2d 65 40 a3 32 17 85 46 cd 6f 40
       169.4065475881455 254.4148583844263
000770 ce 92 3e 5b 69 79 70 40 c7 b6 91 a9 0e b8 6c 40
       263.5882217830921 229.75178984126816
000780 ce 55 53 e7 3e 36 6e 40 8a 51 0c 4a e8 6c 6e 40
       241.6951786639824 243.40335562139472
000790 f4 3e fb a2 ec f8 70 40 3e 99 36 ee d2 65 49 c0
       271.5577726187032 -50.79549958864162
0007a0 90 ed 82 d0 cd 2b 25 c0 9d 0e 5d c0 ab b2 6e 40
       -10.585554615003986 245.5834657495042
0007b0 50 2d d7 57 b5 c2 6c 40 89 66 39 ac cf b2 6f 40
       230.08463661219366 253.58785067759553
0007c0 00 3c 04 ab 73 31 70 40 ab 7e d1 cb 13 8e 62 40
       259.0907392659574 148.43991652409508
0007d0 8d 44 a2 76 14 12 70 40 88 0c 53 d9 b5 cf 46 c0
       257.1299959505639 -45.62273708872914
0007e0 46 77 61 a2 47 2d 61 40 e1 a8 59 19 bf 84 6f 40
       137.41499442135154 252.14832751762063
0007f0 7c 63 83 c3 72 78 6b 40 18 94 da 62 c5 fb 24 c0
       219.7640092436012 -10.491740311796136
