project_presentation_files/obstacle_benchmark_3/reward_obstacle_map_pretrainedModel_solidObstacle.npz (npz, 15783 bytes, 2 tensors)

obs_radius_array f8 [2]
0	0x3fe8000000000000	0.75
1	0x3ff0000000000000	1.0

total_reward_array f8 [2, 3, 3, 100]
0	0xc0701efbae5ea472	-257.93644558877634
1	0x406dc552b45ad459	238.16634576549657
2	0x4071979aa8745e32	281.47525830703955
3	0x40690811ac4fc90c	200.2521573599155
4	0xc05bf99d944ea07f	-111.900242878708
5	0xc046cfa1f0ca2374	-45.622129534435686
6	0x40716aac78d60a8a	278.66710742578346
7	0x4072c85f953fc441	300.5233356943973
8	0x406f0192145ef26f	248.04908197922074
9	0xc060ffe40ab92f82	-135.9965871445566
10	0xc060d45b6ef138f9	-134.6361612998369
11	0x4070820e5defc559	264.1285075536776
12	0x406db61f177db744	237.69129538110622
13	0x406691527e270c43	180.5413199198393
14	0xc0850ae769e1d889	-673.3629949230391
15	0x4070dbb35c9bad58	269.7312894898546
16	0x40723805d4028d34	291.50142289158543
17	0x3ff34e4db31577c0	1.206617068811724
18	0xc065d5e554f92d90	-174.68424462001394
19	0x406b66c674c62ab8	219.2117256040999
20	0x406bd5cf27e79223	222.68153758267098
21	0xc0636c383f55f776	-155.38186613836632
22	0x406f64a38c008e97	251.14496421917713
23	0x406f2588e512b62f	249.1729607930624
24	0x406e8159fd3ef801	244.042235014902
25	0xc065e50df7189eb0	-175.15795473869866
26	0xc02c11cf806fb9d0	-14.034786237371833
27	0x40715f4da6f1fcec	277.956458039537
28	0x406c29398bba2734	225.28827463491473
29	0xc062cb72d8ea8a85	-150.357769449318
30	0xc0733d9ad765d3e2	-307.85030307556565
31	0xc07070791514cb5d	-263.0295611202508
32	0x4070dca59bfa1025	269.79043195420155
33	0xc015dbd7a2483d70	-5.464689765605144
34	0x40706653a76bcbce	262.39542333705765
35	0xc06810458714bd5a	-192.50848726320947
36	0x4071fb7ff112a0bc	287.7187357642795
37	0x406fe20900d63a69	255.06359903184355
38	0x4028e352a770be78	12.443989975464532
39	0xc0655fe7b6a4b690	-170.99703533335241
40	0xc066f448474358b2	-183.6338230433808
41	0x406e4713205c6ebb	242.2210847668956
42	0x406d07758be77a9c	232.23309893809062
43	0xc06cfaf0fe70035d	-231.8419182002789
44	0xc066a97422ec5138	-181.29542680888858
45	0x4065a747c7949821	173.22751215956035
46	0x4070485ad77dfce2	260.52217816556924
47	0x405f872250d40f0b	126.11146946629394
48	0x406c41d0627d0604	226.05668758791592
49	0x407101acf795b7bf	272.10472830279826
50	0x406bf5784263e9e8	223.6709300948562
51	0x407006031796f003	256.37575491867045
52	0xc067b1a030abd8ef	-189.5508044582743
53	0x4064f9231c3ca750	167.785535925354
54	0xc066141d3ba00d82	-176.62856847057634
55	0x406e681f3e98d5fc	243.2538140282703
56	0x40704981f250c378	260.59422523067724
57	0x40697c82b3acf8b4	203.89095481666084
58	0xc0255e6296a99e30	-10.684345920758545
59	0x406ea92976dc2abc	245.28631155969003
60	0xc02c2d8c46159988	-14.088960828911482
61	0xc07385cf022137a0	-312.36303914046766
62	0xc06b58de4ba42794	-218.77713567792364
63	0xc066de8ab02df61c	-182.95442971207456
64	0x40644105a1e4b16a	162.03193754831892
65	0x406d9563a5aad196	236.66841395724322
66	0x406adf807dbace1a	214.98443495259636
67	0xc015fdb895fe7d20	-5.497774451883089
68	0x406df3d9274650f8	239.62025798543596
69	0xc06523299f2de799	-169.09883078542478
70	0xc067b4c423ef06f5	-189.64894291577335
71	0x40725697dae2deb8	293.41207398053257
72	0x406236222f5661f2	145.69167296287156
73	0xc0618fde3d78677b	-140.495878920712
74	0x406d23ac6a2bfe2e	233.1147967204319
75	0x401c7960a86035b0	7.118532782432723
76	0xc055b60b5bcc2b8d	-86.84444327295769
77	0xc07c118a84f47e77	-449.0963182020709
78	0x4036e6c26564dae8	22.901403748629406
79	0x406ce7dbb7cd4f2c	231.24557104205576
80	0x407015f5402153fd	257.372375612438
81	0x406e4f7fbd075dd5	242.48434306563163
82	0xc060d9be1acf49a3	-134.80445614324444
83	0xc074b56948f9e302	-331.33820436107646
84	0xc06374acea953e16	-155.64610795163088
85	0x4065864a068aa2bc	172.19653632237703
86	0x4070bc7cc6487f20	267.78046253508546
87	0x406c082c4dcb8737	224.25540818931196
88	0x406b43176f6ddfa8	218.0966107507677
89	0xc07002cd09cd7a3f	-256.1750581766573
90	0xc0604813cd922202	-130.25241735974856
91	0x406b47e886536d33	218.24713436407328
92	0xc063d40b3f03c698	-158.62637282121136
93	0xc05e0f079a36cf2c	-120.23483901360004
94	0x4071dd29d8bd21ee	285.82271646385095
95	0x406a0f945f43f61b	208.4868618323679
96	0xc071f23b2ddbe656	-287.13944803140964
97	0x406cbba45349e1bb	229.86380924634963
98	0xc071423e16edf8e6	-276.1401585861007
99	0x406ba92cdb4ecee3	221.28672566787927
100	0xc0654e2ae845bdec	-170.44273770925008
101	0xc0659b0e6bd15dec	-172.84551039592714
102	0x4070ed79229f9a2a	270.8420740351163
103	0x4071771591a42068	279.44276584732006
104	0x40706d1d85477d78	262.8197071831305
105	0x4070a8be2ec3b221	266.5464313167923
106	0x4069bee570b3347c	205.96550784111957
107	0x406d84959d5f3f3a	236.14326351740766
108	0xc072461d965a3326	-292.3822234652929
109	0xc067b585236a8c6e	-189.67250223932518
110	0x406d4292e5b857af	234.08043180469892
111	0xc024b6a04df742a8	-10.35669177668872
112	0xc0666793636318e0	-179.23674172739902
113	0xc065cd9db151dfdc	-174.42549959174255
114	0xc06734fbcbc6c18a	-185.65573681659254
115	0xbff4d35da1e8cc40	-1.3016029667458184
116	0x3ff7414656171840	1.4534362185381866
117	0xc0387946d53c70a8	-24.47373707509601
118	0xc069ae78aee72b08	-205.45223183774965
119	0x406e1ef52667989f	240.96742553933743
120	0xc0678706cac1c9ea	-188.2195791039406
121	0x406b663e7471d61c	219.1951238845221
122	0x406a9f2da5131177	212.97432187771093
123	0xc0672b6dab754734	-185.3571374216641
124	0xc06603b965465eb3	-176.11638129943967
125	0xc01e5255cb97df10	-7.580405408043376
126	0xc065d41f55ac591e	-174.62882503186933
127	0x405f17bb65e14544	124.3708128642948
128	0x406c711670576246	227.53398911540188
129	0xc01e297e73c5a5d0	-7.540521439493617
130	0x4071402ab579c7ee	276.01042697497076
131	0x406ac97626db4d56	214.295672825169
132	0x406ac53565efaa80	214.16276833352822
133	0x406d6fd0c0c18aec	235.49423253823568
134	0x4070f7166100c611	271.44296360304094
135	0xc064dd183c241e26	-166.90920836500408
136	0xc0364b24921d9c9c	-22.29352677557891
137	0x406fc005cd862cc4	254.0007083531001
138	0xc06a8da4999c3674	-212.42634277830405
139	0x4067296e5949098d	185.29472030892467
140	0xc06a45f419a5f6c2	-210.1860473863108
141	0xc063c812ce3b9e7d	-158.2522956051288
142	0xc067d6e5b3b7096c	-190.71553979634643
143	0xc0673386eb03cfae	-185.61021948570618
144	0x40703283bc6c9396	259.1571621171255
145	0x406d913dfc4ebb9f	236.5388165986778
146	0x4066a87e312ab2ee	181.26540430392873
147	0xbfd2f0908d4fb000	-0.2959329013817751
148	0xc067bfa38ebeee7c	-189.98871552745175
149	0xc067be782df4a560	-189.9521703508608
150	0xc06614e7b5d81ce6	-176.65328495225475
151	0x406b035e75264b42	216.1052804706506
152	0x407059b37a63e108	261.60631789222
153	0x406e298c7322d880	241.29839474492837
154	0xc070a6d70c10cc47	-266.42750174104407
155	0x4071199b825aa697	273.60046611223646
156	0xc05664e1cb42cd61	-89.57628137134226
157	0x406e6de92e18fb33	243.43471436385298
158	0x407147bacd6f1057	276.48310607322986
159	0x406cfba0661a5f70	231.8633299365133
160	0x4070b35f8adc0562	267.21082578607286
161	0xc0654386f986dbb9	-170.11022640552054
162	0x407296fa1f35f4bd	297.4360649211556
163	0xc0678499daa24d53	-188.1437810106241
164	0x40415c34fa8ffb88	34.720366783431984
165	0xc06446f17f8da745	-162.2169797674816
166	0x4069137f52e0ad0b	200.60929244882604
167	0xc067fce1d651d4c6	-191.90256801588674
168	0xc06a73de5a05c676	-211.62089253547646
169	0x406ac662780be5de	214.19952013324558
170	0x406d203d90518a55	233.00751510549404
171	0xc0645988b11dd871	-162.79793601826853
172	0x40716c40ecb7753e	278.7658507505729
173	0xc0653a39d21581d4	-169.8195581836759
174	0x40705b528587f515	261.7076468764147
175	0x406c45a5c10e1e20	226.17648365743025
176	0xc06cbb7656f57a73	-229.8581957621096
177	0x4070256d99521578	258.3392575460816
178	0x406a113ae6a5875f	208.5384400589928
179	0x40710027a70a6614	272.0096807867242
180	0x406af25348d58832	215.57266656594726
181	0xc06538636678a816	-169.76213382306804
182	0x406c4c8fc05302b4	226.3925477620411
183	0xc0581052dc17d96c	-96.2550573571113
184	0x4073068fc1d1b758	304.41009694977174
185	0x406d86f189d85928	236.21698467498322
186	0x406ccbd91864e3e9	230.37025088982708
187	0xc063c6a65f20ec2a	-158.207809032728
188	0x406f22e4f1017f2e	249.09044695179313
189	0xc06d1e126b171f62	-232.9397483302701
190	0xc07d474ce13d74dd	-468.4562694931645
191	0x406537ad4c5783e8	169.7399045666964
192	0xc066757eb3908f44	-179.67171648248961
193	0x407062c1bccc9cad	262.17229919363564
194	0xc0688432929ee168	-196.13117342978808
195	0x405de6e8e0514536	119.60796363770064
196	0x406c5cec4454d7cb	226.90384117670905
197	0xc0686662c7c5aa20	-195.1995581493984
198	0xc064e699a967288a	-167.20625753543965
199	0xc06806129b707654	-192.18977138486173
200	0xc066cf35153119dc	-182.4752298316006
201	0x406d526711b2b748	234.57508168130357
202	0xc0676f651ac50af6	-187.48109186634946
203	0x40681c20c031086c	192.87899789406526
204	0x40700c58be9b9b1d	256.7716661527973
205	0xc03b59b4f96d1a6c	-27.35041769899037
206	0xc056d380310e0243	-91.30469919555712
207	0x406d50e544321e87	234.52798661984363
208	0x406e800e4e10c43f	244.00174620890354
209	0xc0698cd0dd0ba508	-204.40049602770182
210	0xc0689301e6a6e32a	-196.59398205371082
211	0x407101b8b7346242	272.10759659254484
212	0xc0687d0b2b2975f6	-195.90761335466203
213	0xc068a45a43d544fa	-197.1360186734599
214	0xc069354eef87f41c	-201.66588570168904
215	0x406e8e4cb9cd7b40	244.44686594136328
216	0x406c6113f41183d8	227.03368571682836
217	0x406587aa02c7b1ed	172.23950327876028
218	0xc069f399b1ea810e	-207.61251159478746
219	0xc067ce6e217290a4	-190.45094368339517
220	0xc06bbc3a33072752	-221.88210441014468
221	0x4070a5dbb5e0da0e	266.3661402495644
222	0x40648e6e6a89a05e	164.45097853546298
223	0xc069bc3da588833f	-205.88252522146828
224	0x406eb1568c078600	245.54181481809064
225	0x406b13990b900c80	216.6124322713331
226	0x407219d45f8b8ba8	289.6143489314077
227	0x406b97c83f41d852	220.74319422588684
228	0x406be4098d324684	223.12616596049713
229	0x406669b022cf20ab	179.30275097326862
230	0x406cf08a94ccc74d	231.51691665645413
231	0x406ca9b271912a84	229.30303266861677
232	0xc06d18038f84c2bd	-232.7504346459372
233	0x406eb8408b61f109	245.75787896279533
234	0x4070f7166100c611	271.44296360304094
235	0xc064ffdc8998178c	-167.99567107873406
236	0xc02ffc3a47b27eb0	-15.99263214162724
237	0x406e91ab4e35e7a6	244.5521613171415
238	0x4066328163820af8	177.57829451941484
239	0x40728816277f3eaa	296.5054087610721
240	0x40628ac8cba5b3c3	148.3370111690875
241	0xc066fc32a09b4df5	-183.88118009884752
242	0x405d3cff12bc83f8	116.95306843194692
243	0xc03be3669444b918	-27.888283983972627
244	0xc05138cf482e0dbe	-68.88765148637228
245	0x40719db9cf7da32b	281.8578638942442
246	0xc0695ad9ce5657c5	-202.83908764709318
247	0xc067c3b611012a0c	-190.11597490527527
248	0xc0343e53bbc7b764	-20.24346517206085
249	0xc069848b3c448fc4	-204.1419965113729
250	0xc0654de941bee424	-170.4347237327903
251	0x406eeeb3a6b42a5f	247.45943007649018
252	0xc0693a199fe7b753	-201.81562800652554
253	0x406c7e40537b4224	227.94535230707072
254	0xc068b4e1e9fb52b6	-197.6525773914961
255	0x406ad7c400d6fca1	214.74267618169418
