project_presentation_files/obstacle_benchmark/reward_obstacle_map_pretrainedModel_noObstacle.npz (npz, 15783 bytes, 2 tensors)

obs_radius_array f8 [2]
00000000: 0000 0000 0000 e83f 0000 0000 0000 f03f
0.75 1.0

total_reward_array f8 [2, 3, 3, 100]
00000000: 4a08 64c2 fc5f 66c0 04ab 5bbe 670e 65c0
00000010: 6db0 56f0 1de2 65c0 0c9f e256 7fc8 7240
00000020: 407c 3c13 3d37 2240 e570 10f1 5fe0 63c0
00000030: 4cf0 5668 1760 3740 9863 f9d3 76e9 4440
00000040: dc15 8221 3949 4940 1447 45b5 05ef 3640
00000050: db10 19a4 dfcc 66c0 485a 3eb6 deec 4e40
00000060: 0680 8697 e55c 68c0 708a 4a31 d6c5 3940
00000070: 1c62 82b1 3575 62c0 0774 1cb2 cc16 6b40
00000080: 5a2e 1882 9cc4 66c0 e083 4c1f ddc8 2640
00000090: 147d 6019 0271 33c0 af53 492d d1b5 65c0
000000a0: fad1 63a3 70fe 67c0 d048 c30c 2c62 3f40
000000b0: 8844 94cf fba7 4640 36fb cf4b 139b 41c0
000000c0: 101d 52ac 035f 1ec0 3cb2 03ae 833a 63c0
000000d0: e875 ed4d fe95 4040 5283 fe97 a3a0 66c0
000000e0: b0e1 f8d1 9b7b 62c0 e88d eded 3701 3640
000000f0: 5478 f512 0358 4840 585e c845 ecf8 4340
00000100: 3aa4 7ae7 381e 7240 fc3d ea0a dc5a 3840
00000110: 3066 9f86 6b36 4540 0032 ac8d 2f5b 0cc0
00000120: b068 ecbb 4edd 4340 9823 1de9 7487 4140
00000130: 50b3 af54 8d67 4240 c41f 9266 1e6b 66c0
00000140: 545f 381c 9393 4640 4f20 bf9e 6d7a 60c0
00000150: e832 15bf b806 2e40 4440 293c 02c3 64c0
00000160: 6a07 062b 7b56 67c0 c41c 65c1 af2b 3040
00000170: 401f 9845 a452 4540 62f8 ed53 99bc 68c0
00000180: d0e0 61e3 2b8b 64c0 686d 189e 331d 68c0
00000190: 018c a6ac b123 65c0 d42c cccd 06c4 65c0
000001a0: 989c 5dab 3f4e 3240 71bf cce6 5f53 66c0
000001b0: c024 9a3a 7573 2940 ecc9 f5f4 3436 6d40
000001c0: 58f5 f378 1207 3840 7a90 b4b0 f667 62c0
000001d0: 682a 5a4f 58db 6bc0 3a16 cec4 273a 67c0
000001e0: e43c 1cea f9ca 66c0 e849 b37d e7c6 2840
000001f0: 7a80 d64d 036a 64c0 88b1 6a03 8b66 3740
00000200: 5d28 072a eae1 65c0 f69b a226 b7a0 65c0
00000210: 2c51 6e57 3b89 63c0 48d3 1b49 5ed0 65c0
00000220: b05a b202 06ea 2440 a6d6 bf77 4e10 6f40
00000230: 38ab e003 ec8b 4440 800b 8f9f 3de5 3c40
00000240: c860 ca2e a87c 4740 d061 d530 bcef 2c40
00000250: c7a7 2789 5af3 65c0 4027 6b16 83e7 1640
00000260: f0e3 dd66 0eba 12c0 23d2 ac82 c007 66c0
00000270: 18b5 8a1d cbb1 3cc0 c6de bd45 8d38 62c0
00000280: 444b 004c cfe1 6bc0 122c 18f8 6f2c 78c0
00000290: a443 a12b a2f6 4040 f8c5 c682 2fda 3d40
000002a0: fcb4 ded0 b09c 4f40 a446 4e6a 87cf 65c0
000002b0: 4415 5679 679f 4140 94bb cee7 e158 66c0
000002c0: a89f 7678 ac50 67c0 42b8 fcca d540 5dc0
000002d0: 0051 04e9 33df fe3f 48c6 c11c e8bb 3f40
000002e0: b689 8e3f 4f60 65c0 d874 7699 6fbf 20c0
000002f0: 10c8 53e4 c62e 4e40 e441 0414 e97f 3740
00000300: d812 3cca e0b6 3ac0 0c16 8e50 e142 3640
00000310: a0ec 93c6 3e90 4440 182d 379b 0ad4 33c0
00000320: b007 b53a 9ddb 68c0 2c6f 761e dc96 4c40
00000330: 7bb8 6191 9802 6140 f012 3d4f c237 4740
00000340: 0e72 288a 7694 6dc0 12f1 86a1 5d1c 6ac0
00000350: f0b7 bea6 b258 6ac0 6031 23e7 90b7 3240
00000360: 04b6 54d3 ffee 7040 607e 69db 6215 2c40
00000370: f86b 83da 0ffa 4040 107d 370d fa42 6cc0
00000380: 5c4e 03f2 2c6f 3040 4cdc 57b3 8fdc 4b40
00000390: ac8e 6182 d954 6bc0 dc58 5b25 f09c 4240
000003a0: 387a c4c6 ae2e 2240 6c45 a046 d40b 49c0
000003b0: 50ed d280 c639 7240 80b4 ff10 fe6e 0940
000003c0: ec11 a23a 6e57 6cc0 94c3 eab1 10e1 7cc0
000003d0: c8b2 7a82 d55e 3740 c099 bfef 3039 32c0
000003e0: f426 c5ab a451 68c0 ee40 54cf f35c 40c0
000003f0: 7af9 3f67 5b66 47c0 980d 2b8c c175 2b40
00000400: 8014 27e2 5f13 3c40 00e4 d12d c121 3940
00000410: 653e ba9a 269b 6cc0 5cb9 b45c 6fde 69c0
00000420: 44e3 d482 8738 4c40 5e93 fb0b dbdb 69c0
00000430: b52b 3884 1248 6cc0 d187 cd41 ed93 6bc0
00000440: 7425 8165 8949 41c0 2ebe 1b29 b814 68c0
00000450: c08f b23f 1fa7 18c0 2095 57e5 c80b 41c0
00000460: 407c c38e 0fa7 55c0 d1ac cac2 1dbb 6ac0
00000470: c817 b126 5517 4140 8ccc 3c27 6b93 4240
00000480: 7748 a6a9 1b98 65c0 ef08 3095 04ca 6bc0
00000490: 28dd 0cab feaa 4740 08de 2539 7b17 39c0
000004a0: 8699 b742 e255 69c0 320e 0169 2ae8 68c0
000004b0: f05c b8a9 ee98 69c0 d457 4349 ec8a 3340
000004c0: 7571 5353 83e4 69c0 897d ba05 3e3a 6cc0
000004d0: 6f4a 2a16 27a2 6ac0 405f 7e34 6976 3d40
000004e0: f0f2 3c2a b552 6ac0 bc09 46bd dd45 7040
000004f0: 66c7 011e 5891 6ac0 a4bd 9856 56c5 6bc0
00000500: 0c38 86fd 7bc1 69c0 986d 523e 84fe 22c0
00000510: 00e0 f615 f62f 2ac0 7c92 215a aedc 37c0
00000520: 326e 8155 6723 6bc0 a4cb 7941 3126 6bc0
00000530: ae35 4cb8 1dda 68c0 6bbc 7409 38e9 69c0
00000540: 8086 60e1 71dc e5bf f8f2 7968 d3dc 6bc0
00000550: e85c 4f05 bbe2 3640 1cc3 0fab 3ac3 6bc0
00000560: 893c 9c19 970f 44c0 6c3c 0411 8b45 4240
00000570: b09f 0d54 d72e 1040 9053 b22f a4f7 69c0
00000580: e86b 0bb2 e7fd 4140 107f fee6 d1df 69c0
00000590: a456 2d23 12a8 32c0 9833 6c91 7900 2340
000005a0: 6cdf 729b b226 4440 2a36 48c1 bb3d 7040
000005b0: 80d0 8ea1 d3af eabf 6cbe 47a1 a9bf 6bc0
000005c0: 717a 8fb2 388e 6ac0 326c b1a5 6688 6ac0
000005d0: b80d f063 0e25 4040 1ae3 841f 4a08 74c0
000005e0: ab7f 6925 aa63 6ac0 955c a87d c6c8 6bc0
000005f0: 2c14 2c7f 1537 6ac0 14cc 1cc4 dbd5 69c0
00000600: 22c4 9b4a 9105 72c0 3c0a f81d a641 3dc0
00000610: a0d7 cfcd 8523 2440 393d 553b 5c90 6cc0
00000620: ecaf 4e24 7af6 3940 349c 0ae6 3a45 4940
00000630: 709a c6f8 02b5 2bc0 747c f833 f702 37c0
00000640: f4cd 6001 5e7b 68c0 8457 47b9 9baa 4940
00000650: 08fd 3346 eb23 82c0 bc76 8979 7cfe 6ac0
00000660: 0cec 1c29 a5ce 69c0 78c1 6aee 33c7 3640
00000670: 682b 29bc 9137 67c0 08a9 d66e 51d8 4340
00000680: 68b7 90e8 91cc 4040 5458 a9d9 c150 6ac0
00000690: 385b 26c8 55a3 78c0 bc8b 077b 2062 4140
000006a0: d433 6442 cc19 4340 95b5 5852 e5e8 68c0
000006b0: c013 31db 580d 3b40 8cf4 f74d 56ec 67c0
000006c0: 9c32 90d7 67bd 3840 a06b d8a7 a595 0ec0
000006d0: 602a fe77 1d26 2bc0 d961 ca5e 791f 68c0
000006e0: 90e8 54e7 4491 30c0 6854 1655 2aa5 4140
000006f0: 14e3 f696 39a9 6dc0 8ccb 6e74 e2f7 4c40
00000700: 2a4e 5423 d37a 6bc0 7fa9 d49f 524d 7ac0
00000710: fced 4f6e 59b4 3040 0015 1d36 c400 f03f
00000720: 61d9 9099 849f 7140 f95f b6c5 ae4c 7040
00000730: 1bad 1154 3ed5 6bc0 1cc0 3ba4 9304 6cc0
00000740: 3814 0001 8f51 5040 f0f3 95c2 59a6 3f40
00000750: b846 557c 6e42 39c0 9a7e 5ab3 34cd 5340
00000760: 9eb9 053a eded 81c0 1f4c 41d9 6649 6bc0
00000770: ab36 8599 68f3 4fc0 80ab 0480 7b6d f73f
00000780: 4030 c203 3f7a 0840 d0d7 2263 e261 3140
00000790: 9207 d8d8 e8d1 67c0 3284 812d 29d1 45c0
000007a0: 60b8 e63f 3131 22c0 acca 0afe ddfd 7140
000007b0: 408a e890 5d70 4440 50de 7ddb f7a7 3a40
000007c0: 7479 bbc3 1fd5 38c0 24d1 1c44 c5e4 4040
000007d0: 749b 6820 11a5 68c0 0def 8c33 477d 6ac0
000007e0: 00c9 8343 9f74 36c0 1c06 83bc 6179 4440
000007f0: b092 6d34 ddf5 3640 7ed6 a451 3009 6bc0
-178.99960441148352 -168.45016401199257 -175.06615464145162 300.53108871959626 9.107887841351953 -159.01171162806637 23.37535717127348 41.823938843509666
50.57205599643541 22.933680848515976 -182.4022999276702 61.85054662746967 -194.90302635449933 25.772799568842345 -147.6628043695972 216.71248727376243
-182.1441050026213 11.392312028970935 -19.441438280159744 -173.6817842895666 -191.95124978538644 31.383484647442685 45.31237215747484 -35.21152637152993
-7.5927874493711585 -153.8285741874878 33.17182325453524 -181.01996993741574 -147.86277102098165 22.004759665009175 48.68759381280748 39.94471046718235
289.8888926306423 24.354920084178943 42.4251564291302 -3.5445242946791495 39.728965273317385 35.05825532839589 36.80900057391284 -179.34746101894245
45.152926948094915 -131.8258813603338 15.013128253305197 -166.09402282769054 -186.70253516366512 16.170650565324436 42.64563817909084 -197.89371677855075
-164.34910744778472 -192.91255097170801 -169.11543877152147 -174.1258305537982 18.305659017900865 -178.60545673360642 12.725503760639526 233.69396446233384
24.027625617561483 -147.24886355654218 -222.8545300255821 -185.81735458613713 -182.34300714030462 12.388484886298968 -163.31290332693953 23.400558675335134
-175.05983449361784 -173.0223572898828 -156.28849383875183 -174.51150947031624 10.457077106735 248.50957858532382 41.09314011068494 28.895471546576573
46.97388253099194 14.468232656524293 -175.60480172867958 5.726085996904487 -4.681695563595881 -176.24224981073448 -28.69450554500972 -145.76724516948724
-223.05655479485915 -386.77733621065374 33.926824048750206 29.852287457970277 63.22414599298824 -174.48528018272657 35.24534527495646 -178.77757635476576
-186.52105353516276 -117.01304888419784 1.9294928648205882 31.734010503109204 -171.00967386092606 -8.373898311338436 60.365444699200566 23.499650240935708
-26.71436752287522 22.261250528992647 41.12691576216571 -19.828286839457263 -198.86294303281238 57.17859249861644 136.0811240109068 46.43561735612991
-236.6394701757385 -208.88642956119344 -210.77180802583416 18.717054792491922 270.9374574002288 14.041769844653743 33.95360881249502 -226.0930238803635
16.434279561812545 55.723135393047954 -218.65155142835772 37.226078672030525 9.091177188381252 -50.09241564584485 291.6109626998268 3.179195530704021
-226.7322056928091 -462.06657592491797 23.370445399242072 -18.22340296199559 -194.55135143762857 -32.72619048704097 -46.799664407956655 13.729992275481706
28.075681814709696 25.131853927367047 -228.84846245170334 -206.95109401033085 56.4416354693881 -206.8704891122424 -226.25226031275602 -220.62271204130823
-34.5745055084798 -192.64748053949864 -6.163205142282038 -34.092068355336096 -86.6103245648419 -213.84738292298292 34.182286106558934 37.15170755833341
-172.75337679364358 -222.31305941945854 47.33589685562248 -25.09172398733611 -202.68386970385853 -199.25517702299254 -204.77913366325765 19.54266794103735
-207.1410309438467 -225.82007109092618 -213.06727131137765 29.46254280171638 -210.58461486724946 260.3666355834828 -212.5420064959282 -222.16678933937249
-206.04638553824077 -9.497102687418007 -13.09367436064349 -23.862035401531543 -217.10636401442895 -217.19351266658953 -198.8161279190512 -207.28809044647218
-0.6831597711463502 -222.90080665414985 22.88566621005603 -222.10091164663834 -40.12179870728239 36.54330647188985 4.045743287402658 -207.73879227475527
35.98363328511897 -206.99437284189526 -18.65652675492187 9.500927490671344 40.30232565983792 259.85833862502716 -0.8339632182528618 -221.98945678722828
-212.4444210817633 -212.26253018048152 32.28950165959708 -320.5180964651969 -211.1145197926065 -222.27422984011778 -209.72137411698475 -206.68307691215944
-288.3479715427985 -29.25644099527038 10.069380218144772 -228.51125876091263 25.962801236353627 50.54085994260859 -13.853538297885478 -23.01158451859051
-195.8552252665246 51.33287731154908 -580.4898799954981 -215.95269467209243 -206.45766120575752 22.77813615900365 -185.73653991738252 39.68998513680896
33.59820277277214 -210.52366335940553 -394.2084428308767 34.76661622875642 38.201546000411014 -199.27799336744343 27.05213708828137 -191.38553522518885
24.739865753845706 -3.8230698693200367 -13.574443578506532 -192.98356570747163 -16.56745763609848 35.290354381468944 -237.28827999324915 57.93659835252683
-219.83827368226895 -420.83267195769434 16.704489607347554 1.000187121754891 281.9698730142755 260.79266902198975 -222.66385844662076 -224.1430226485253
65.27435326583588 31.649807130441275 -25.25949837762775 79.20634158933026 -573.7408333251258 -218.29380476716412 -63.90162962917869 1.4642291069710325
3.0596905034672375 17.38236064530048 -190.5596737117126 -43.63406914543192 -9.09607886973771 287.86669735160353 40.877855409188214 26.656125753621666
-24.83251593901646 33.787270082541255 -197.15834064894773 -211.9149415733922 -22.45555517165576 40.9482951774373 22.960406567336292 -216.28714830584425
