project_presentation_files/obstacle_benchmark_2/reward_obstacle_map_pretrainedModel_transparentObstacle.npz (npz, 15783 bytes, 2 tensors)

obs_radius_array f8 [2]
00000000: 0000 0000 0000 e83f 0000 0000 0000 f03f
0.75 1.0

total_reward_array f8 [2, 3, 3, 100]
00000000: da90 2b00 5bae 64c0 88d2 c05d df85 6f40
00000010: 8653 66da 1006 6640 048a f3d4 0803 63c0
00000020: 12d0 1a3d 7073 7040 c04a fad8 9ca2 f0bf
00000030: e798 0a50 bf4e 62c0 3569 3464 e100 7140
00000040: a4b9 78f6 a91c 6e40 1e8c 3461 672f 6e40
00000050: 706a 42ed 1da1 43c0 9408 2d30 ca11 7240
00000060: b639 7ccc 2979 7240 38ed 792c 4c7c 6540
00000070: ffac 8cbf 34f8 6540 1f5d fa0e d8a6 6f40
00000080: 78a1 e01b 3f04 4c40 be9e 9d0a 5f49 7040
00000090: 4ecd 137b ebe9 6e40 329d 84e0 945c 7240
000000a0: dc08 c4ee 8d20 3040 491e 716e 7dc8 6040
000000b0: 702f 808b 63ec 1a40 d8a6 8f5a b79c 6f40
000000c0: f905 e0b7 d4ca 6340 8a03 7757 5f4d 6f40
000000d0: b417 0cd7 2a99 7040 d49d fdcd cc75 64c0
000000e0: 85eb 0620 05dc 7040 5cfd a9a9 bbcd 64c0
000000f0: 0a33 afaa 6579 65c0 4924 2c4e 66f2 63c0
00000100: 1bc0 b05d 4e86 60c0 4475 2318 3e42 66c0
00000110: 99be 0ee6 d090 6140 1b69 787f 6a20 62c0
00000120: 04d5 271d 9f93 66c0 7f7e ce42 abc4 6340
00000130: 4e34 8a38 7ae7 6f40 5dbe 42b7 21d9 6540
00000140: e200 5905 6030 6340 2c17 0876 0cd4 66c0
00000150: cabc 0b12 e936 7040 4447 d885 b663 6bc0
00000160: b7aa 45b9 49b2 62c0 b8d2 bddf bac0 6340
00000170: 005d 1241 c266 61c0 85a4 ec24 460d 6240
00000180: 9ed0 16f5 8191 7240 c1c4 ea1f 68ca 6e40
00000190: 6878 6eb1 8903 7040 0bae c8c1 588b 62c0
000001a0: 835a 804a 25d9 65c0 c4c8 2163 d0fe 5ec0
000001b0: 204c cf16 4795 6f40 bff3 08cd 1454 6140
000001c0: d89a b5a9 0236 4540 608f 4cc8 5e6c 0140
000001d0: 30b9 ce83 a0b9 63c0 1c80 01e5 8685 7140
000001e0: e777 f813 cfdf 6c40 3f56 4250 37b4 7140
000001f0: 41fe 9369 fae2 6440 3cb7 8f3a 4b86 5ec0
00000200: 1c38 a55a b8a3 63c0 b665 8586 99f3 65c0
00000210: bedc bab7 866d 63c0 f6b0 3219 7f9d 60c0
00000220: c8e9 7d27 48b1 66c0 9e74 7715 db84 6440
00000230: cc99 93ad dee1 3b40 ea43 968e 8a5d 61c0
00000240: 0954 9cad 19eb 68c0 977e 84ae eb8f 69c0
00000250: d642 4787 b559 5fc0 7acf e977 9d6a 64c0
00000260: bef5 1ab1 c3ff 6a40 68b5 5c37 43bb 64c0
00000270: 689c 7a7a 6f4f 4640 d08e c703 ebeb 5e40
00000280: f1fe f029 1437 69c0 2eb5 a563 3e52 45c0
00000290: c6ee 2d9a 55e1 6f40 f092 3c0f 02aa 79c0
000002a0: 2881 8f88 e67e 2c40 8e05 2bcc ba16 60c0
000002b0: 3363 fb95 8a2c 46c0 e062 7c4c 7d95 0ac0
000002c0: 9064 f774 693e 80c0 5640 00aa 0c5f 6d40
000002d0: 5570 aaf5 fee2 6dc0 b97a 692b a955 6f40
000002e0: e0b7 150f 2b98 62c0 861d 1196 835c 66c0
000002f0: fece 93f9 9d3b 45c0 767d 3c54 125a 63c0
00000300: 5903 936d c439 63c0 8606 d889 87f5 62c0
00000310: 60c5 f786 6ade 60c0 1a0c 9b84 cf1a 62c0
00000320: aa74 17d7 407b 67c0 ac9d 8400 cf5b 6640
00000330: 2574 4914 bc79 6c40 9198 54df cc63 7040
00000340: 3e77 e7be 9c36 7140 b4a1 89d7 9021 6d40
00000350: f715 19e0 db67 65c0 3744 8535 d0ad 6f40
00000360: 07b7 e563 2c12 6e40 c7b1 fe12 eb8d 69c0
00000370: 480c 36b2 6212 69c0 a837 145f 5d7e 69c0
00000380: 95ed 246c a9e7 64c0 0b02 3d31 bea6 7240
00000390: 0cfb d7c9 2660 6640 cec3 2f60 385a 65c0
000003a0: 71dc b050 d730 66c0 4ce3 5db0 07ff 6040
000003b0: 13c3 d89e 884c 6340 58ee 2027 3a7a 6f40
000003c0: c814 8517 51a2 68c0 05e4 738d 4686 68c0
000003d0: 577a 5088 895c 66c0 6609 228a c754 6040
000003e0: 7011 ad81 670d 2140 30c7 d052 0155 2f40
000003f0: 934d a0a8 a776 6340 d08f 862c a427 82c0
00000400: 2f46 86a6 2b9f 6f40 1197 533e d1b3 85c0
00000410: 5812 e5fc 92c4 7040 0872 5ab2 d23f 7140
00000420: b897 1c42 69e1 67c0 51e9 6cec 8c63 6f40
00000430: 6838 f82f 0a76 2040 6ebe 21de 73ac 7040
00000440: 9d65 97a1 b02f 64c0 876d 4db0 8ea0 84c0
00000450: f2d9 db5c 4002 6440 6c89 33c3 40f7 70c0
00000460: 1496 63a9 17f7 69c0 9cc3 e049 8f31 7040
00000470: 73de 7685 4446 6540 bab9 e5ee 19fc 6040
00000480: a0c2 f4fb dfa1 69c0 a494 87f2 16e0 69c0
00000490: 8136 7612 73ef 82c0 88a5 6831 926c 67c0
000004a0: 3032 55bd 0e94 19c0 dcf3 d011 b434 6440
000004b0: 1f3a 51a5 a060 6f40 4ee5 1f44 6c43 7140
000004c0: 6303 106c 52b3 6440 b64f cf50 37cb 86c0
000004d0: b4f7 3f8e 2e65 68c0 e2c7 0433 3ab1 6ac0
000004e0: 1089 c178 493f 6ac0 e055 c23b 771a 31c0
000004f0: da80 19b0 d6c1 6740 f293 31df 86b5 66c0
00000500: 1f23 30ba 5d7e 83c0 d3fa 74f7 6b98 6440
00000510: 5cdb 1e3b 323e 7140 8830 2181 74dd 6540
00000520: 541a 3f17 216e 68c0 b07b 5795 6f33 1040
00000530: 525d be86 ebd3 63c0 bf54 0c20 f1dd 6840
00000540: e52d 606f dd2c 67c0 c85b 33d3 ac27 66c0
00000550: bc87 4f1f 9ac8 67c0 cab2 2125 6199 6a40
00000560: 13cf 0621 2b2f 69c0 ec95 0324 4ade 33c0
00000570: 2e8e 0bb4 d242 6c40 2072 682f 7b8a 7140
00000580: ab80 cf4b f4ad 67c0 34a3 2f9d 5fed 6f40
00000590: 70e4 6849 df16 4240 aef6 d630 9472 7140
000005a0: b010 1b09 73ca 66c0 68ac c967 aa2f 7040
000005b0: 282d 9265 f0d4 5cc0 bef4 cd6b ce2e 6bc0
000005c0: 66d9 0a11 80f6 6b40 126e 0ba2 4e52 6440
000005d0: 65e7 46bb 89ef 67c0 61c3 112f 2746 68c0
000005e0: 9525 2f6e e8b6 81c0 67c5 0ef7 2cc1 68c0
000005f0: 0041 f696 e168 6ac0 a27f f72d f36a 66c0
00000600: a7c5 863c 6610 6740 4271 ee94 b1a6 7040
00000610: fb20 69f4 0c54 63c0 6eee 863f ff06 84c0
00000620: d68e 72c3 7460 7040 4751 72a4 3c3a 64c0
00000630: a4cc 9223 8e0d 69c0 3187 6486 a48d 6340
00000640: a80a d6c6 8012 68c0 bffa 4723 6dc4 6440
00000650: ee26 1c23 5b78 6f40 a21a c05e 5bc3 7240
00000660: 4067 c750 9c75 6c40 ef75 4bb0 296b 6640
00000670: 38c8 ad99 19b5 7040 7730 db2c 5946 7040
00000680: 86bf ae87 2234 7240 ed46 f5fa c761 7040
00000690: 4dc0 3716 9c65 7040 1496 5c98 297c 66c0
000006a0: 388d 2b26 9d00 69c0 b48b fca3 4986 6e40
000006b0: 7885 c436 6bb3 68c0 ddcc f2eb 2003 66c0
000006c0: 06b8 59ca 83b1 7040 ba96 3414 8839 68c0
000006d0: 3376 5b96 4326 6340 9535 e0e5 4ccf 68c0
000006e0: 91a5 2c84 2744 82c0 73a5 58d0 4fbf 69c0
000006f0: 87a5 05c8 5afe 68c0 c66d 0612 7167 7040
00000700: 0443 caa7 ef47 6f40 6fa1 c7bb 25a7 7140
00000710: caab 6d03 738a 69c0 a436 806b 8352 6bc0
00000720: d9a2 8001 1630 6bc0 7c6b 9528 468d 6440
00000730: b41e 4504 34f6 6340 7c9b 346f b1be 6e40
00000740: d8e8 d23a 6f58 68c0 f0ca 3922 43e9 1840
00000750: edf5 fa66 cae3 6ac0 d8e1 76ed 9184 3d40
00000760: 4b82 ccde cfe9 6b40 811c 6a22 1345 76c0
00000770: 9ce1 b2f6 4474 71c0 bf73 c532 0f44 6540
00000780: 266e 4f65 365a 7040 4c3c d7f3 e152 6740
00000790: 21c8 554a 66bc 6c40 a7f1 b288 6d6a 6bc0
000007a0: b923 e538 8660 6440 4834 1b78 0b91 2e40
000007b0: ac90 26a3 cb59 6ac0 2ad0 daf3 8f1c 6bc0
000007c0: 7fc8 63f0 39be 70c0 0106 cd19 b828 6440
000007d0: f6c7 0215 4453 6ac0 7515 123b 2343 79c0
000007e0: 2e20 4e38 e43d 62c0 e1e2 9b95 36c8 7040
000007f0: 013c 95b2 81f1 6240 06de 7d30 a408 6f40
-165.44860847958518 252.1835163847029 176.189557266098 -152.0948281056045 263.21490202401867 -1.0397003627482917 -146.46085359639912 272.0550272033027
240.89574740962155 241.48136959326888 -39.2587257932945 289.1118623503801 295.57270477796135 171.88429855169102 175.75643899417625 253.21387432955905
56.03317593067453 260.58570348329874 247.309995211292 293.7863469295727 16.127165720806133 134.26531145184916 6.7308484837520695 252.89738205010394
158.33846658472592 250.4178883862008 265.57295899127644 -163.681250567765 269.7512512464821 -166.4291580505477 -171.79366049021365 -159.57498844739374
-132.197066159454 -178.0700798695126 140.5255003250102 -145.01300023572625 -180.61317308215814 158.14590587931522 255.23366953843146 174.7853657058321
153.51172129996763 -182.62652112560443 259.43190197548813 -219.11603061906692 -149.5714994774514 158.0228117663844 -139.21121266924456 144.414812528794
297.0942278758247 246.32521053174244 256.2211164775131 -148.3545845908669 -174.78580212658935 -123.98146894740336 252.6649278687264 138.62753917454208
42.421956266092536 2.1779151581157947 -157.80084410072004 280.345433240758 230.9940280774019 283.2635042754445 167.0930679216854 -122.09834159884207
-157.11625416058894 -175.61249090246355 -155.42269503113306 -132.92176494503627 -181.5400578936808 164.1517436345211 27.882304047141403 -138.92316369389238
-199.34688454182495 -204.49751973989325 -125.40170461615648 -163.33172221819024 215.99263816133129 -165.85195510966446 44.62058955180038 123.68621916282723
-201.72121140546327 -42.64252896872709 255.0416994950412 -410.6255028120204 14.247852580564157 -128.71030243303943 -44.34797930502682 -3.3229928946933427
-519.8014926269116 234.970295906535 -239.09362300194576 250.67690058328097 -148.7552562164483 -178.891062768391 -42.46575851170745 -154.81473743261785
-153.80522803033344 -151.672795221257 -134.95050381081364 -144.83783178599043 -187.8516650636787 178.86901880170387 227.80420889231132 262.2375176720171
275.4132679978974 233.04893090134794 -171.24559025668688 253.43166614559752 240.5679187285061 -204.43494558091172 -200.57454786831136 -203.94889787625038
-167.23943145000945 298.42143367606394 179.0047349184391 -170.81938180283618 -177.52628359358962 135.96968859040715 154.3916773065217 251.819598736113
-197.07239891045015 -196.19611237177756 -178.89178863256777 130.64935785911365 8.526180317284087 15.666025722489934 155.70796614941773 -580.9551630509031
252.97407842851086 -694.47716965966 268.28588571053615 275.9889396222138 -191.0440989073229 251.1109525801826 8.230546473551115 266.77828801327894
-161.49031142778122 -660.0696722077417 160.0703567785236 -271.45331115848126 -207.72163838816107 259.0974825649116 170.1958644220027 135.87816567295323
-205.0585918217157 -207.00280119400588 -605.9311875567802 -187.39284582556525 -6.394587477040247 161.6469811516862 251.01961007942825 276.21393215617434
165.60381129386505 -729.4020096012307 -195.1619330644004 -213.538354405725 -209.97771871375926 -17.103381857819727 190.0574570177185 -181.67271384890734
-623.7957652817457 164.7631795201074 275.8872634129855 174.9204717300638 -195.44153940510535 4.050230344261692 -158.62250077419827 198.9356842270699
-185.40203064713492 -177.23984680205308 -190.26881375821347 212.7931085260555 -201.47401477174625 -19.868318796992682 226.08822061783707 280.6550745086588
-189.4360713055406 255.41792163185312 36.17868917104431 279.161179389669 -182.32654242788476 258.9791028859968 -115.32717265391386 -217.46269788957392
223.70313312643992 162.5720987532846 -191.48556293342986 -194.19228318662047 -566.8634914096207 -198.0367389000414 -211.27753780456987 -179.34218500461162
184.51248003313705 266.41835492269104 -154.6265813878343 -640.8746328870309 262.02850670575333 -161.81990263297686 -200.42360094711069 156.42633361467736
-192.57821981244092 166.13832248743526 251.76112514017535 300.20980715790404 227.67533148714028 179.3488389467088 267.3187500751842 260.39677129383875
291.25843017827026 262.11132331668233 262.3506071260243 -179.88007753451586 -200.01918323999575 244.19648932767234 -197.6068376386936 -176.09776875898288
267.09467539831564 -193.7978611971974 153.19575040687195 -198.4781369570816 -584.5192950714137 -205.97849290193298 -199.94858170607424 262.46510508071185
250.24800481323484 282.4467122839041 -204.32653972072723 -218.57854247132957 -217.5026862633156 164.4148142736775 159.69384969234454 245.9591594722259
-194.76357785409232 6.227795157220257 -215.11845730796577 29.517851678394294 223.30662479346424 -356.3171714920973 -279.26683683276656 170.12685526432867
261.63828021075676 186.59008209264937 229.88748661760567 -219.3258708472251 163.01638455156152 15.283290627785519 -210.80610806972743 -216.89257233368818
-267.8891452691823 161.2724732403149 -210.60206080001052 -404.19610125602713 -145.93410887965132 268.51332627194466 151.54708222529737 248.27004265387967
